…
			Ohio St: 0.89, 0.11 :Florida
Ohio St: 0.93, 0.07 :Oral Roberts
Model: "model_1"
__________________________________________________________________________________________________
Layer (type)                    Output Shape         Param #     Connected to                     
==================================================================================================
input_1 (InputLayer)            [(None, 102)]        0                                            
__________________________________________________________________________________________________
init_dense (Dense)              (None, 500)          51500       input_1[0][0]                    
__________________________________________________________________________________________________
dropout (Dropout)               (None, 500)          0           init_dense[0][0]                 
__________________________________________________________________________________________________
dense_0 (Dense)                 (None, 500)          250500      dropout[0][0]                    
__________________________________________________________________________________________________
dropout_1 (Dropout)             (None, 500)          0           dense_0[0][0]                    
__________________________________________________________________________________________________
dense_1 (Dense)                 (None, 500)          250500      dropout_1[0][0]                  
__________________________________________________________________________________________________
dropout_2 (Dropout)             (None, 500)          0           dense_1[0][0]                    
__________________________________________________________________________________________________
dense_2 (Dense)                 (None, 500)          250500      dropout_2[0][0]                  
__________________________________________________________________________________________________
dropout_3 (Dropout)             (None, 500)          0           dense_2[0][0]                    
__________________________________________________________________________________________________
input_2 (InputLayer)            [(None, 9)]          0                                            
__________________________________________________________________________________________________
final_dense (Dense)             (None, 500)          250500      dropout_3[0][0]                  
__________________________________________________________________________________________________
dense_aug1 (Dense)              (None, 9)            90          input_2[0][0]                    
__________________________________________________________________________________________________
output (Dense)                  (None, 2)            1002        final_dense[0][0]                
__________________________________________________________________________________________________
dense_aug2 (Dense)              (None, 9)            90          dense_aug1[0][0]                 
__________________________________________________________________________________________________
concatenate (Concatenate)       (None, 11)           0           output[0][0]                     
                                                                 dense_aug2[0][0]                 
__________________________________________________________________________________________________
dense_augconc (Dense)           (None, 500)          6000        concatenate[0][0]                
__________________________________________________________________________________________________
aug_output (Dense)              (None, 2)            1002        dense_augconc[0][0]              
==================================================================================================
Total params: 1,061,684
Trainable params: 1,061,684
Non-trainable params: 0
__________________________________________________________________________________________________

Scores for training years:
		ESPN		LogLoss		Acc.
2012		1320		0.67			0.68
2013		1160		0.69			0.63
…
