…
			Ohio St: 0.79, 0.21 :Florida
Ohio St: 0.92, 0.08 :Oral Roberts
Model: "model_1"
__________________________________________________________________________________________________
Layer (type)                    Output Shape         Param #     Connected to                     
==================================================================================================
input_1 (InputLayer)            [(None, 234)]        0                                            
__________________________________________________________________________________________________
init_dense (Dense)              (None, 250)          58750       input_1[0][0]                    
__________________________________________________________________________________________________
dropout (Dropout)               (None, 250)          0           init_dense[0][0]                 
__________________________________________________________________________________________________
dense_0 (Dense)                 (None, 250)          62750       dropout[0][0]                    
__________________________________________________________________________________________________
dropout_1 (Dropout)             (None, 250)          0           dense_0[0][0]                    
__________________________________________________________________________________________________
dense_1 (Dense)                 (None, 250)          62750       dropout_1[0][0]                  
__________________________________________________________________________________________________
dropout_2 (Dropout)             (None, 250)          0           dense_1[0][0]                    
__________________________________________________________________________________________________
dense_2 (Dense)                 (None, 250)          62750       dropout_2[0][0]                  
__________________________________________________________________________________________________
dropout_3 (Dropout)             (None, 250)          0           dense_2[0][0]                    
__________________________________________________________________________________________________
dense_3 (Dense)                 (None, 250)          62750       dropout_3[0][0]                  
__________________________________________________________________________________________________
dropout_4 (Dropout)             (None, 250)          0           dense_3[0][0]                    
__________________________________________________________________________________________________
dense_4 (Dense)                 (None, 250)          62750       dropout_4[0][0]                  
__________________________________________________________________________________________________
dropout_5 (Dropout)             (None, 250)          0           dense_4[0][0]                    
__________________________________________________________________________________________________
input_2 (InputLayer)            [(None, 9)]          0                                            
__________________________________________________________________________________________________
final_dense (Dense)             (None, 250)          62750       dropout_5[0][0]                  
__________________________________________________________________________________________________
dense_aug1 (Dense)              (None, 9)            90          input_2[0][0]                    
__________________________________________________________________________________________________
output (Dense)                  (None, 2)            502         final_dense[0][0]                
__________________________________________________________________________________________________
dense_aug2 (Dense)              (None, 9)            90          dense_aug1[0][0]                 
__________________________________________________________________________________________________
concatenate (Concatenate)       (None, 11)           0           output[0][0]                     
                                                                 dense_aug2[0][0]                 
__________________________________________________________________________________________________
dense_augconc (Dense)           (None, 250)          3000        concatenate[0][0]                
__________________________________________________________________________________________________
aug_output (Dense)              (None, 2)            502         dense_augconc[0][0]              
==================================================================================================
Total params: 439,434
Trainable params: 439,434
Non-trainable params: 0
__________________________________________________________________________________________________

Scores for training years:
		ESPN		LogLoss		Acc.
2012		1160		0.64			0.60
2013		1150		0.66			0.62
…
