…
			Ohio St: 0.70, 0.30 :Florida
Ohio St: 0.97, 0.03 :Oral Roberts
Model: "model_1"
__________________________________________________________________________________________________
Layer (type)                    Output Shape         Param #     Connected to                     
==================================================================================================
input_1 (InputLayer)            [(None, 102)]        0                                            
__________________________________________________________________________________________________
init_dense (Dense)              (None, 100)          10300       input_1[0][0]                    
__________________________________________________________________________________________________
dropout (Dropout)               (None, 100)          0           init_dense[0][0]                 
__________________________________________________________________________________________________
dense_0 (Dense)                 (None, 100)          10100       dropout[0][0]                    
__________________________________________________________________________________________________
dropout_1 (Dropout)             (None, 100)          0           dense_0[0][0]                    
__________________________________________________________________________________________________
dense_1 (Dense)                 (None, 100)          10100       dropout_1[0][0]                  
__________________________________________________________________________________________________
dropout_2 (Dropout)             (None, 100)          0           dense_1[0][0]                    
__________________________________________________________________________________________________
dense_2 (Dense)                 (None, 100)          10100       dropout_2[0][0]                  
__________________________________________________________________________________________________
dropout_3 (Dropout)             (None, 100)          0           dense_2[0][0]                    
__________________________________________________________________________________________________
input_2 (InputLayer)            [(None, 9)]          0                                            
__________________________________________________________________________________________________
final_dense (Dense)             (None, 100)          10100       dropout_3[0][0]                  
__________________________________________________________________________________________________
dense_aug1 (Dense)              (None, 9)            90          input_2[0][0]                    
__________________________________________________________________________________________________
output (Dense)                  (None, 2)            202         final_dense[0][0]                
__________________________________________________________________________________________________
dense_aug2 (Dense)              (None, 9)            90          dense_aug1[0][0]                 
__________________________________________________________________________________________________
concatenate (Concatenate)       (None, 11)           0           output[0][0]                     
                                                                 dense_aug2[0][0]                 
__________________________________________________________________________________________________
dense_augconc (Dense)           (None, 100)          1200        concatenate[0][0]                
__________________________________________________________________________________________________
aug_output (Dense)              (None, 2)            202         dense_augconc[0][0]              
==================================================================================================
Total params: 52,484
Trainable params: 52,484
Non-trainable params: 0
__________________________________________________________________________________________________

Scores for training years:
		ESPN		LogLoss		Acc.
2012		1520		0.65			0.67
2013		1180		0.65			0.62
…
